python/python-rust-binding/models/digit_recognition/model.pkl (torch, 319571 bytes, 4 tensors)

l1.weight f4 [100, 784]
000000 4a 82 f7 ba 65 75 33 bc f1 3d be 3c 7c d4 1a bc
       -0.0018883434 -0.010953282 0.023222895 -0.009450074
000010 83 f8 e7 3c d0 01 8f 3c 7c ac 33 bc 25 1d 8d bb
       0.028316742 0.017456919 -0.010966416 -0.004306453
000020 d5 79 0f bd dc 15 83 bb d5 1f 83 bc 1c f5 a8 bc
       -0.035028297 -0.0040004086 -0.01600639 -0.02062469
000030 b0 52 65 3d a6 5f d3 3c 73 04 27 3d b1 c1 27 3d
       0.05598706 0.025802445 0.040775727 0.040956203
000040 7c 18 af bc 37 d9 32 3c 17 f8 9e bc 0e 06 50 3c
       -0.02137398 0.010916046 -0.019405408 0.012696756
000050 45 29 a2 bc f3 9b cd bc 73 60 65 3c d3 c8 38 bc
       -0.01979507 -0.025098776 0.014000046 -0.011278349
000060 9a e4 c9 3c dc ea b0 3c 00 e5 9c 3b ea af c8 bc
       0.024645139 0.021596365 0.004788041 -0.024497945
000070 1c 77 f7 bb c5 22 10 3c aa 32 71 3c 2e 36 1c 3c
       -0.0075520407 0.008797352 0.014721552 0.009534402
000080 0c 05 16 3d 01 60 39 3d be 11 a5 3d 0c 9e cc 3d
       0.036625907 0.045257572 0.08060025 0.099910825
000090 da 2c 85 3d 00 23 dd 3d f1 07 96 3d ab 91 a9 3d
       0.065026954 0.10797691 0.073257335 0.08279737
0000a0 ee 9e 25 3e 21 9a 01 3e 51 58 8b bd 82 3a 93 3c
       0.16173908 0.12656452 -0.068039544 0.017972235
0000b0 6b 37 43 3e 98 1f 33 3e 11 02 1b 3e e5 94 fe 3d
       0.19064109 0.17492521 0.15137507 0.12430743
0000c0 56 82 2f 3e 5c 0c e0 3d 8c 13 58 3d 22 ff 93 3d
       0.17139563 0.10939857 0.052753016 0.07226397
0000d0 ee 31 7b 3c 23 a6 a2 3c f7 ca be 3c 80 29 1e 3c
       0.015331728 0.01985461 0.02329014 0.009653449
0000e0 1c eb 08 bd 21 9d f3 bc a5 1c 54 3d 50 c0 b7 3d
       -0.033427343 -0.02973801 0.05178513 0.089722276
0000f0 7a 18 e8 3d d9 2f 24 3d 0d 5d d6 3d 60 3a 13 3e
       0.113327935 0.040084694 0.10466967 0.14377737
000100 c8 49 36 3e e8 8c e3 3d 6d 42 52 3e 89 47 36 3e
       0.17801583 0.1111086 0.20533152 0.17800726
000110 98 14 17 3e 99 eb 9f bd 3f a7 c3 bd c6 40 eb bd
       0.1475395 -0.078086086 -0.09553384 -0.11486964
000120 ac d2 e9 bd 8a ed 26 bd dd d2 dd bc c4 cc 61 bd
       -0.114171356 -0.04075388 -0.027078087 -0.05512692
000130 cf 99 38 bc ee 63 95 3d d9 59 60 3d 16 61 0e 3e
       -0.01126714 0.07294451 0.054773185 0.13904223
000140 44 b9 ce 3d 40 ab 05 bd 5c ca 8b bc da e1 c7 bc
       0.1009393 -0.03263402 -0.017064266 -0.024399687
000150 ba 6b cc 3c 93 79 7d 3c c3 53 c0 bd 70 4e d9 3d
       0.024953712 0.01547088 -0.09390976 0.10610664
000160 84 93 a1 bb 5c cf db 3b c9 08 95 3c 2c f8 3e 3c
       -0.0049309153 0.006708069 0.018192666 0.0116558485
000170 bd 1f cd 3d 34 ac 3b 3e 2e db 2e 3e d1 64 23 3e
       0.10015819 0.18327409 0.17075798 0.15956427
000180 7f 5f bb 3d 23 3f 8c 3d c6 a8 93 3d 33 87 ec 3c
       0.09149074 0.0684798 0.07209925 0.028873062
000190 32 84 03 bd 19 7a bb 3c 7b 7b 9a 3b 6d d8 6a bd
       -0.032108493 0.02288537 0.004714427 -0.057335306
0001a0 78 b0 a8 bc d3 1b 00 3c 99 dc ba bc 88 d2 c8 3c
       -0.02059196 0.007819134 -0.022810267 0.024514452
0001b0 9f 03 f0 bc 40 13 b9 bd 20 b9 c5 bd 18 82 60 bc
       -0.029298602 -0.09036875 -0.096544504 -0.013702892
0001c0 8e 7e 59 bc 19 b0 14 3d d2 e5 6a bd c7 25 d8 3c
       -0.013274802 0.036300752 -0.05734808 0.026385201
0001d0 0c b6 e9 3c a2 c8 64 bd d6 64 1b bd 7c f6 27 bb
       0.02852919 -0.0558554 -0.03793796 -0.0025629094
0001e0 7b c9 b5 3c 82 bf 99 3d aa 85 9d 3c 3d f5 23 3c
       0.0221908 0.0750723 0.019228775 0.0100072
0001f0 c7 a8 86 3c 3f a9 83 bd 6c 43 17 3d e6 37 43 bc
       0.016437901 -0.064287655 0.036929533 -0.011915183
000200 51 78 29 bc dc 8f bf ba 29 f7 98 bd b1 a9 0a be
       -0.010343627 -0.0014615017 -0.07469017 -0.13541295
000210 40 3c c8 bd 55 92 25 be f6 5f c6 bd 2e 85 eb bd
       -0.09777117 -0.16169102 -0.09686272 -0.115000114
000220 5b 97 14 be d5 6f 7f bd fb c2 8a 3d ae fc a1 3d
       -0.14510863 -0.06236251 0.06775471 0.07909523
000230 53 f9 cd bb 6e 13 86 3c 87 ca 7f bd ab 7b ae bd
       -0.0062858253 0.016366687 -0.062449005 -0.085196815
000240 54 d0 7c 3d 58 47 cf bd 62 f2 6f bd d7 25 9c bd
       0.061722115 -0.101210296 -0.058580764 -0.07624405
000250 d6 bc 01 3d 54 9f 88 bd d6 18 35 3c fe f3 e6 3c
       0.03167423 -0.066710144 0.011053285 0.028192516
000260 cd 02 25 3d 78 74 ef 3d a6 53 1d 3d c9 15 5d 3d
       0.040285874 0.116921365 0.03840985 0.053975854
000270 17 8a 75 bc 81 cf 77 bc 38 30 2e bb f8 50 58 bd
       -0.014986536 -0.015125156 -0.0026579034 -0.052811593
000280 16 bc b3 bd a5 c6 2e be ba ae 5c be de a9 58 be
       -0.08776109 -0.17067964 -0.21551028 -0.21158549
000290 b7 79 2d be b9 a1 4d 3d d6 f3 4e 3d 46 f3 77 3b
       -0.16940962 0.05020306 0.05052551 0.0037834211
0002a0 00 c3 12 bb 27 a6 99 bd 30 a1 8a 3d 88 c7 64 3d
       -0.002239406 -0.07502394 0.06769025 0.05585435
0002b0 63 39 18 bd d1 33 04 be 71 5f d6 bd a4 bb e7 bd
       -0.037164103 -0.12910391 -0.10467423 -0.113150865
0002c0 5f fa 49 bd d5 5e a1 3c 43 3d 23 3d 09 18 09 3e
       -0.049311038 0.01969854 0.039853346 0.13388075
0002d0 49 20 19 3e 3a 9a 35 3e 7a 21 3d 3e 66 12 17 3e
       0.14953722 0.17734614 0.18469802 0.14753112
0002e0 35 19 a9 3d c9 ab fc 3d f5 3c 59 3d 07 18 a6 bc
       0.08256761 0.12337453 0.05303665 -0.020275129
0002f0 ad 96 01 bd 5f 41 dd bc fc e1 1c be c0 62 45 be
       -0.031637836 -0.02700871 -0.15320581 -0.19275951
000300 b7 aa 51 be 1a 85 c0 bd b7 52 25 be f1 ee e2 bc
       -0.20475279 -0.09400387 -0.16144834 -0.027701827
000310 66 ec a7 3c 0e 9b a5 bd fc c5 19 3e 57 c2 7e 3d
       0.020498466 -0.08086215 0.15016931 0.062197056
000320 f4 dc b5 bd fd e5 38 be 33 e3 2d bd d0 80 96 bd
       -0.08880034 -0.18056484 -0.042453002 -0.07348788
000330 89 cd 67 bd 92 cf 46 3d 24 c1 ee 3d 8e cb cd 3d
       -0.056592498 0.0485378 0.116579324 0.100485906
000340 42 67 23 3e 7c 5d 1a 3e 66 67 4e 3d eb d5 cf 3d
       0.15957358 0.15074724 0.050391577 0.101482235
000350 a0 93 77 3d 7f 1c 80 3d 1b e7 7b 3d 5b d6 6c 3c
       0.06044352 0.06255435 0.061499696 0.014455403
000360 c6 4f 50 ba 51 b8 31 bd 13 97 fe bd 1b 9a 9c bd
       -0.00079464575 -0.04338867 -0.12431159 -0.07646581
000370 09 71 c7 bd f0 fa a1 bd 2e 0e 69 be 7f a8 75 bd
       -0.097383566 -0.07909191 -0.22759315 -0.059975144
000380 64 14 52 bb c9 ee 79 3d 9c e2 9c 3c e4 61 5c 3b
       -0.003205561 0.06101874 0.019151025 0.0033627683
000390 13 64 4c bd 4c 68 98 bd d2 94 d6 3c c1 3e 89 bb
       -0.049900126 -0.07441768 0.02619401 -0.004188389
0003a0 b1 4f 81 3d ec 89 54 3d c8 64 14 3e fe 7e ed 3d
       0.06314028 0.051889345 0.1449157 0.115964875
0003b0 ff b2 95 3d b7 ec 09 3d 7c 1a 29 3d db 3a a0 3d
       0.073095314 0.033673014 0.041285023 0.07823726
0003c0 c0 79 cf 3d a6 2c 3c 3d 5c f0 a9 3c 4b ac f5 39
       0.10130644 0.045941018 0.020744495 0.0004685841
0003d0 81 96 b2 bb 96 a9 13 3c bd 4e 86 bc 84 27 30 bd
       -0.0054500704 0.0090126 -0.016394967 -0.043006435
0003e0 61 e6 71 bd a1 c1 c8 bd d6 10 b3 bd 66 c4 0c 3d
       -0.059057597 -0.09802557 -0.087434456 0.034366988
0003f0 91 90 f6 3b 93 64 ad 3d ac 66 05 bd 52 88 d8 3d
       0.007524558 0.08466449 -0.03256862 0.10572876

l1.bias f4 [100]
000000 bb e8 e3 bd cf ff ae bc 86 37 88 bd f5 7b bd 3d
       -0.11128374 -0.021362213 -0.06651215 0.092521586
000010 8d 0a 2c bd 23 be 40 3e 35 45 2f 3a a2 77 0b 3d
       -0.04200225 0.18822531 0.0006686033 0.034049638
000020 f7 f9 d0 3d 05 a3 b3 3d ac bd 07 3e 0c 07 3d 3d
       0.10203927 0.08771328 0.13255948 0.0461493
000030 3c 0b 82 3e f3 94 03 bc 9d 59 7f 3b 05 0c 22 3d
       0.25399196 -0.008031118 0.0038963326 0.039562244
000040 f7 36 0c 3e 70 3b 0e bd b4 80 ca 3d a2 41 f7 3d
       0.13692842 -0.034724653 0.098878294 0.12073065
000050 92 86 12 3e 1d 69 08 3d 91 2a a5 bc 2d 90 9c 3d
       0.14309147 0.03330337 -0.020161899 0.07644687
000060 8a f1 8d 3c c0 18 f3 3d 35 84 e6 3d ee b3 84 bd
       0.017327089 0.11869955 0.11255685 -0.06479631
000070 2f 94 f5 bd 40 44 ca 3c 7f ad 8d 3d 4b c4 9e 3c
       -0.119911544 0.024690747 0.069178574 0.01938071
000080 d0 f7 f0 3d 98 c1 c2 3b da 00 cd 3d b6 3d 9a 3d
       0.117660165 0.0059434883 0.10009928 0.07531302
000090 94 c9 20 3e 57 f9 fb bc e5 0a 82 3d e4 ce 2f bd
       0.15701896 -0.030758543 0.06349734 -0.042921916
0000a0 70 25 13 bb f3 a9 75 bc 66 a5 a3 bc c8 86 77 3d
       -0.0022452734 -0.014994132 -0.019976329 0.06043127
0000b0 45 58 98 bd 63 0b cd bc 6b c0 dd 3d 1d 73 90 bd
       -0.07438711 -0.025029844 0.108277164 -0.07053206
0000c0 8f 33 f5 3a 70 3a ab 3d 9c 9b 49 3e 10 6d 5c 3c
       0.0018707382 0.083607554 0.19688267 0.013453737
0000d0 4b f1 14 3d c0 5c a2 bc 01 71 76 3d 93 bd 36 3e
       0.036362927 -0.019819617 0.060166363 0.17845754
0000e0 f6 e9 ce 3d 82 6d c7 3c 14 57 b9 3c fc 10 0e bd
       0.10103218 0.02434421 0.02262453 -0.034684166
0000f0 8b 51 d4 3c 87 31 60 3e 7d fa 8f bc 07 69 1c 3c
       0.025917789 0.21893893 -0.017575497 0.009546525
000100 82 fa 1a 3d 76 a1 0f 3d a9 9f b6 3b 7a 82 69 3d
       0.03783656 0.03506609 0.005573232 0.057009198
000110 0c c2 7a 3d 19 22 04 bd 24 f3 55 bd b2 5b a8 3d
       0.061220214 -0.03225908 -0.05223383 0.082206145
000120 a2 a9 c2 3d 38 fa 04 3d 2e 89 20 be da a3 fd bc
       0.09505011 0.03246519 -0.1567733 -0.03096192
000130 52 c0 78 3d 31 9d b7 3d 52 df a6 bb ec 56 98 bc
       0.060730286 0.08965529 -0.00509254 -0.018596135
000140 ba 80 76 3d 5f 40 b1 3d 5b 18 29 bd a7 51 87 3b
       0.060181357 0.08654856 -0.041282993 0.0041296068
000150 bc 4d d3 3d c7 29 a8 3d f7 81 35 3e c9 55 ba 3d
       0.10317561 0.082110934 0.17725359 0.090983935
000160 f3 c6 c3 3d 94 61 11 3e 69 bb 06 3d 8a 90 03 3d
       0.09559431 0.1419738 0.032893572 0.032120265
000170 c9 15 c9 3c d1 ba de 3d 51 af ce 3d f2 9d ba bd
       0.02454652 0.10875476 0.10092033 -0.09112157
000180 40 18 a4 bd 77 ce 12 3e 89 8d d8 bd 21 0f 01 3d
       -0.08012438 0.14336573 -0.10573871 0.03150857

l2.weight f4 [10, 100]
000000 5a f6 fd 3d db a1 1a bd e6 00 3b 3e d2 3a 35 3e
       0.124005035 -0.037752014 0.18262061 0.1769822
000010 2e 39 30 3e e1 8f a9 be e3 c9 54 3d 3b 24 aa bb
       0.17209312 -0.33117583 0.051950347 -0.0051923073
000020 81 1b 83 3e a4 ba 6a 3c 32 19 0d 3e c2 2c 1e 3e
       0.2560692 0.014326725 0.13779142 0.15446761
000030 7c 6c 4f be 32 a3 92 3d ab 0f 89 bd 2e a0 1a be
       -0.20256227 0.07160033 -0.066924416 -0.15100166
000040 3c 1e 8f 3e ba e9 00 3e da e5 89 3c 6b 24 f2 3d
       0.27952754 0.1258916 0.016833235 0.118233524
000050 f5 e9 6f be c3 40 1c 3e 77 40 0f be c3 8b 0f bd
       -0.23429091 0.1525908 -0.13989435 -0.035045397
000060 a6 92 93 3d 0b 14 16 3e 5e 3f 0b be d0 05 8e be
       0.07205705 0.14656083 -0.13598391 -0.2773881
000070 ba d7 30 3e 22 06 86 be 5e cd 7a be c7 7e 63 be
       0.17269793 -0.26176554 -0.24492404 -0.2221633
000080 56 74 37 3e 16 70 6c be 05 0f 46 be 7d 4b 9c be
       0.17915472 -0.23089632 -0.19341667 -0.30526343
000090 66 84 3a 3e b3 60 33 3e cb 20 76 be 28 58 e7 bc
       0.18214568 0.17517357 -0.24035947 -0.028240278
0000a0 45 ca 0d bb a3 ae 9c be cc 5c bf bd 19 db 12 be
       -0.0021635455 -0.30601987 -0.093438715 -0.14341392
0000b0 44 c0 49 3e ad 4e 8e 3d 94 e0 fb 3c 74 86 a5 be
       0.1970225 0.069486 0.030746736 -0.32329142
0000c0 19 89 15 3e 45 5f a6 bc 50 87 a0 be 26 f9 20 bd
       0.1460308 -0.0203091 -0.31353235 -0.039300106
0000d0 45 ee 19 bf bc ef 41 be 9d e0 94 be 3e a1 47 be
       -0.60129195 -0.18939108 -0.29077616 -0.19495103
0000e0 cd 5f ce be ce d2 7c b9 c3 32 8f be 98 13 07 3e
       -0.40307465 -0.00024111124 -0.27968416 0.13191068
0000f0 fd b2 b3 be 6f 68 3c bd 68 62 37 bd d3 83 e0 be
       -0.35097495 -0.045998033 -0.044771582 -0.43850574
000100 f8 46 a5 be 0d ba f6 3c 56 9a ab be 21 e7 17 be
       -0.32280707 0.030118013 -0.33516186 -0.14834262
000110 7a ea 82 3d 59 82 2f 3d 50 86 c2 bd 27 dc f1 bd
       0.06392379 0.04284892 -0.09498274 -0.11809569
000120 8d f6 aa be 22 f6 05 3c c3 38 d3 3d 2d d1 56 be
       -0.33391228 0.008176358 0.10313561 -0.20978232
000130 1f 76 7c be cf 90 f3 bc 17 c7 ab 3d 89 dc 8e bd
       -0.24654435 -0.029732136 0.08387583 -0.069756575
000140 e1 f2 79 3d 64 d2 aa be ae 39 25 3e cb 86 81 bd
       0.061022643 -0.3336364 0.16135284 -0.06324538
000150 f1 77 20 be fd 96 d2 3c e0 4b f5 3d c2 59 4d 3d
       -0.15670754 0.025706762 0.11977363 0.050134428
000160 10 6f 55 3c 71 95 d1 3d 4e f7 00 be ec 49 b7 3d
       0.013026968 0.10233582 -0.12594339 0.08949646
000170 ed be 1f 3e 28 64 08 be e8 84 77 3c 3b 4e a0 bc
       0.15600176 -0.13319457 0.015107371 -0.019568553
000180 c2 6d 69 3d 09 08 c4 3d af c4 1e 3e 8a b6 b0 3d
       0.05698944 0.09571845 0.15504716 0.086285666
000190 c1 15 91 be c3 7b 0a be bb 51 e1 3d 05 59 a0 bd
       -0.2833691 -0.13523774 0.11001917 -0.07829479
0001a0 e5 ec ee be f1 5b 00 be 22 08 42 be cd c0 31 be
       -0.4666511 -0.12535073 -0.18948415 -0.17358704
0001b0 3a 14 e4 3c d1 96 c7 3e ea e0 36 3e 3a aa bc be
       0.027841676 0.3898225 0.17859235 -0.36848623
0001c0 f3 60 c7 be 25 68 2f bd 40 6e b8 bd 7e 7a 31 3e
       -0.38941154 -0.04282393 -0.090054035 0.17331883
0001d0 17 2d ff 3e bc f6 7d be 7c bf e3 3d e6 28 9f be
       0.49839088 -0.24801153 0.11120507 -0.3108589
0001e0 93 de 72 3e 44 67 2b be f2 db df 3c 4d 79 8a 3b
       0.23717718 -0.16738611 0.027326558 0.004225886
0001f0 65 d7 57 be 75 d9 96 be 2e e2 cb be 4d 99 83 be
       -0.2107826 -0.29462782 -0.39821 -0.25702897
000200 d4 36 16 be 0e 50 aa 3d ae 7f fc 3e 08 10 16 3e
       -0.14669353 0.083160505 0.49316162 0.14654553
000210 dc a0 dc bd f8 b0 94 be ab c1 4c 3d ed 66 0d 3e
       -0.10772869 -0.29041266 0.049989384 0.13808794
000220 29 f7 5e ba d2 cf 06 3e 37 1d ec 3d 8f 96 98 bd
       -0.00085054577 0.13165215 0.1152901 -0.07450592
000230 89 37 9e bd 50 de d7 3d 4f d6 a9 bd 0e 9d b6 3d
       -0.07725436 0.105404496 -0.08292829 0.089166746
000240 3c f9 cd 3d 5c 99 a6 3d 93 82 54 3d d6 bb 4a be
       0.10057303 0.0813472 0.051882338 -0.19798216
000250 4b ce d9 3d 3b a2 2a 3e f3 9c f3 3d 3a 2c 73 bd
       0.106350504 0.16663449 0.1189517 -0.05936835
000260 72 3d 15 3e db 11 8d be 53 9a 40 3e 36 9a 2f be
       0.14574221 -0.27552685 0.1880887 -0.1714867
000270 a8 48 47 3e ca d8 30 3c 79 58 0d 3e 99 80 e9 3d
       0.1946131 0.010793874 0.13803281 0.11401481
000280 d7 1f cd 3d 44 c8 68 3e 35 35 b7 3d e4 db 41 3e
       0.100158386 0.22732645 0.08945695 0.18931538
000290 1d 57 cc bd 57 a6 14 bd ca e2 76 3e d5 c0 22 3e
       -0.09977553 -0.036291447 0.2410995 0.15893872
0002a0 67 17 91 bd b5 5e ae 3d 9a 29 7f be 2e 51 fe bd
       -0.07084542 0.08514158 -0.24918213 -0.124178275
0002b0 fe 6c 93 bc 4b 95 5c be b4 3d d4 bd fb 85 6a 3d
       -0.017996307 -0.21541326 -0.103633314 0.05725668
0002c0 74 b6 f7 3d 84 e7 e4 3d b0 40 40 3e 26 4c 67 bd
       0.12095347 0.111769706 0.18774676 -0.056469105
0002d0 3b 8c 5e 3e 05 a8 22 3d ac de 45 be 8f 0a dd bd
       0.21733181 0.039711017 -0.19323224 -0.107930295
0002e0 b4 de 3a be 73 bc f9 bd c1 93 fd 3c bf 5e 87 be
       -0.18249017 -0.12194147 0.030954244 -0.26439473
0002f0 9b 3d 6c be b9 fb 28 3e 9a 82 c1 be 1b 1a cd bc
       -0.23070376 0.16502275 -0.37794954 -0.025036862
000300 a3 48 b0 3e d1 05 ea 3e 0c 9b 56 bd 78 95 d3 bd
       0.34430417 0.45707563 -0.052393958 -0.10331243
000310 ee c5 c7 bd 00 03 03 be 0f 1f 8d be 27 38 42 be
       -0.09754549 -0.12794113 -0.27562758 -0.18966733
000320 ce d6 24 bd 13 09 7c bd 88 50 79 3d 03 f7 98 3e
       -0.040243916 -0.06153209 0.060867816 0.29875955
000330 94 4e 4e 3d b3 59 f9 bd 86 e2 e6 bd ce 04 89 3e
       0.050367907 -0.12175312 -0.11273675 0.26761478
000340 8e db 1c 3a f9 c8 fb bc 3e 8b 80 3e 62 e3 af 3d
       0.0005983644 -0.03073548 0.25106233 0.08588292
000350 ac 63 c1 3d 90 2d aa 3d b7 5c 67 bd 89 ac 69 3e
       0.09442839 0.083094716 -0.056484904 0.22819723
000360 e0 fe 07 be fa 53 0c 3e 93 de 76 be 6c 37 07 be
       -0.13280821 0.1370391 -0.24108343 -0.13204736
000370 bb 36 54 3e f7 4a 96 bd 6d 84 29 3e 9e ab e5 3d
       0.20724003 -0.07338517 0.16554423 0.11214374
000380 9e ed 55 3e 5f 75 6a 3e 0d 2d 17 3e 32 ba 00 3e
       0.20891425 0.22896336 0.1476328 0.12571028
000390 f5 c0 c7 bd 52 e6 40 3e 54 f6 9c bd 51 81 14 3e
       -0.097536005 0.1883786 -0.07664171 0.14502455
0003a0 d4 0b e3 3d a7 19 0b bf de 62 00 bf 1e 7d 1c 3e
       0.110862404 -0.5433602 -0.5015086 0.15282103
0003b0 95 34 18 be 10 56 7f bd 50 61 98 3d 21 9d c2 3d
       -0.14863808 -0.062337935 0.07440436 0.09502626
0003c0 e8 7c c7 3d a2 c5 ad bd 20 b5 30 3d 32 ab f5 be
       0.09740621 -0.08484961 0.043141484 -0.47982174
0003d0 d6 b5 6f 3e 48 3e 0a be 08 d8 01 3e c4 45 af be
       0.23409209 -0.13500321 0.12680066 -0.34232914
0003e0 d8 62 82 bd 2a 28 b6 3c f3 8c d7 be 45 d4 59 3d
       -0.06366509 0.022235949 -0.42099723 0.05318095
0003f0 86 0b d4 3e 14 a6 ea 3c 42 a0 81 bd 39 8e 8b bd
       0.41415042 0.028643645 -0.06329395 -0.06814236

l2.bias f4 [10]
000000 ec 46 e9 bd 69 3a 0b 3e a1 34 5a bd 7f 39 97 3c
       -0.113904804 0.135965 -0.053272847 0.018460033
000010 87 5e c5 3d 8d 16 e1 3c ab 09 c5 bc be 7e 38 bd
       0.0963717 0.027476573 -0.024052462 -0.045042746
000020 98 fa 92 3c e3 a4 08 be
       0.017941758 -0.1334415
